{"nodes": [{"op": "null", "name": "MobilenetV2/input", "inputs": []}, {"op": "tvm_op", "name": "fused_layout_transform_nn_pad", "attrs": {"num_outputs": "1", "num_inputs": "1", "func_name": "fused_layout_transform_nn_pad", "flatten_data": "0"}, "inputs": [[0, 0, 0]]}, {"op": "tvm_op", "name": "fused_layout_transform_77", "attrs": {"num_outputs": "1", "num_inputs": "1", "func_name": "fused_layout_transform_77", "flatten_data": "0"}, "inputs": [[1, 0, 0]]}, {"op": "null", "name": "p0", "inputs": []}, {"op": "tvm_op", "name": "fused_cast_sum", "attrs": {"num_outputs": "1", "num_inputs": "1", "func_name": "fused_cast_sum", "flatten_data": "0"}, "inputs": [[1, 0, 0]]}, {"op": "tvm_op", "name": "fused_multiply_7", "attrs": {"num_outputs": "1", "num_inputs": "1", "func_name": "fused_multiply_7", "flatten_data": "0"}, "inputs": [[4, 0, 0]]}, {"op": "tvm_op", "name": "fused_nn_avg_pool2d_multiply", "attrs": {"num_outputs": "1", "num_inputs": "1", "func_name": "fused_nn_avg_pool2d_multiply", "flatten_data": "0"}, "inputs": [[5, 0, 0]]}, {"op": "tvm_op", "name": "fused_layout_transform_78", "attrs": {"num_outputs": "1", "num_inputs": "1", "func_name": "fused_layout_transform_78", "flatten_data": "0"}, "inputs": [[6, 0, 0]]}, {"op": "null", "name": "p1", "inputs": []}, {"op": "null", "name": "p2", "inputs": []}, {"op": "tvm_op", "name": "fused_nn_contrib_conv2d_NCHWc_subtract_add_add_cast_cast_multiply_add_right_shif_9300672930971097004__15", "attrs": {"num_outputs": "1", "num_inputs": "5", "func_name": "fused_nn_contrib_conv2d_NCHWc_subtract_add_add_cast_cast_multiply_add_right_shif_9300672930971097004__15", "flatten_data": "0"}, "inputs": [[2, 0, 0], [3, 0, 0], [7, 0, 0], [8, 0, 0], [9, 0, 0]]}, {"op": "tvm_op", "name": "fused_nn_pad_9", "attrs": {"num_outputs": "1", "num_inputs": "1", "func_name": "fused_nn_pad_9", "flatten_data": "0"}, "inputs": [[10, 0, 0]]}, {"op": "null", "name": "p3", "inputs": []}, {"op": "tvm_op", "name": "fused_cast_multiply", "attrs": {"num_outputs": "1", "num_inputs": "1", "func_name": "fused_cast_multiply", "flatten_data": "0"}, "inputs": [[11, 0, 0]]}, {"op": "tvm_op", "name": "fused_nn_avg_pool2d_multiply_1", "attrs": {"num_outputs": "1", "num_inputs": "1", "func_name": "fused_nn_avg_pool2d_multiply_1", "flatten_data": "0"}, "inputs": [[13, 0, 0]]}, {"op": "null", "name": "p4", "inputs": []}, {"op": "tvm_op", "name": "fused_nn_contrib_depthwise_conv2d_NCHWc_subtract_add_cast_cast_multiply_add_righ_22436862876929056__15", "attrs": {"num_outputs": "1", "num_inputs": "4", "func_name": "fused_nn_contrib_depthwise_conv2d_NCHWc_subtract_add_cast_cast_multiply_add_righ_22436862876929056__15", "flatten_data": "0"}, "inputs": [[11, 0, 0], [12, 0, 0], [14, 0, 0], [15, 0, 0]]}, {"op": "null", "name": "p5", "inputs": []}, {"op": "tvm_op", "name": "fused_cast_layout_transform", "attrs": {"num_outputs": "1", "num_inputs": "1", "func_name": "fused_cast_layout_transform", "flatten_data": "0"}, "inputs": [[16, 0, 0]]}, {"op": "tvm_op", "name": "fused_sum_7", "attrs": {"num_outputs": "1", "num_inputs": "1", "func_name": "fused_sum_7", "flatten_data": "0"}, "inputs": [[18, 0, 0]]}, {"op": "tvm_op", "name": "fused_multiply_layout_transform", "attrs": {"num_outputs": "1", "num_inputs": "1", "func_name": "fused_multiply_layout_transform", "flatten_data": "0"}, "inputs": [[19, 0, 0]]}, {"op": "null", "name": "p6", "inputs": []}, {"op": "tvm_op", "name": "fused_nn_contrib_conv2d_NCHWc_subtract_add_cast_cast_multiply_add_right_shift_ca_5975801909190603682__7", "attrs": {"num_outputs": "1", "num_inputs": "4", "func_name": "fused_nn_contrib_conv2d_NCHWc_subtract_add_cast_cast_multiply_add_right_shift_ca_5975801909190603682__7", "flatten_data": "0"}, "inputs": [[16, 0, 0], [17, 0, 0], [20, 0, 0], [21, 0, 0]]}, {"op": "null", "name": "p7", "inputs": []}, {"op": "tvm_op", "name": "fused_cast_layout_transform_1", "attrs": {"num_outputs": "1", "num_inputs": "1", "func_name": "fused_cast_layout_transform_1", "flatten_data": "0"}, "inputs": [[22, 0, 0]]}, {"op": "tvm_op", "name": "fused_sum_8", "attrs": {"num_outputs": "1", "num_inputs": "1", "func_name": "fused_sum_8", "flatten_data": "0"}, "inputs": [[24, 0, 0]]}, {"op": "tvm_op", "name": "fused_multiply_layout_transform_1", "attrs": {"num_outputs": "1", "num_inputs": "1", "func_name": "fused_multiply_layout_transform_1", "flatten_data": "0"}, "inputs": [[25, 0, 0]]}, {"op": "null", "name": "p8", "inputs": []}, {"op": "null", "name": "p9", "inputs": []}, {"op": "tvm_op", "name": "fused_nn_contrib_conv2d_NCHWc_subtract_add_add_cast_cast_multiply_add_right_shif_9300672930971097004__14", "attrs": {"num_outputs": "1", "num_inputs": "5", "func_name": "fused_nn_contrib_conv2d_NCHWc_subtract_add_add_cast_cast_multiply_add_right_shif_9300672930971097004__14", "flatten_data": "0"}, "inputs": [[22, 0, 0], [23, 0, 0], [26, 0, 0], [27, 0, 0], [28, 0, 0]]}, {"op": "tvm_op", "name": "fused_nn_pad_8", "attrs": {"num_outputs": "1", "num_inputs": "1", "func_name": "fused_nn_pad_8", "flatten_data": "0"}, "inputs": [[29, 0, 0]]}, {"op": "null", "name": "p10", "inputs": []}, {"op": "tvm_op", "name": "fused_cast_multiply_1", "attrs": {"num_outputs": "1", "num_inputs": "1", "func_name": "fused_cast_multiply_1", "flatten_data": "0"}, "inputs": [[30, 0, 0]]}, {"op": "tvm_op", "name": "fused_nn_avg_pool2d_multiply_2", "attrs": {"num_outputs": "1", "num_inputs": "1", "func_name": "fused_nn_avg_pool2d_multiply_2", "flatten_data": "0"}, "inputs": [[32, 0, 0]]}, {"op": "null", "name": "p11", "inputs": []}, {"op": "tvm_op", "name": "fused_nn_contrib_depthwise_conv2d_NCHWc_subtract_add_cast_cast_multiply_add_righ_22436862876929056__14", "attrs": {"num_outputs": "1", "num_inputs": "4", "func_name": "fused_nn_contrib_depthwise_conv2d_NCHWc_subtract_add_cast_cast_multiply_add_righ_22436862876929056__14", "flatten_data": "0"}, "inputs": [[30, 0, 0], [31, 0, 0], [33, 0, 0], [34, 0, 0]]}, {"op": "null", "name": "p12", "inputs": []}, {"op": "tvm_op", "name": "fused_cast_layout_transform_2", "attrs": {"num_outputs": "1", "num_inputs": "1", "func_name": "fused_cast_layout_transform_2", "flatten_data": "0"}, "inputs": [[35, 0, 0]]}, {"op": "tvm_op", "name": "fused_sum_9", "attrs": {"num_outputs": "1", "num_inputs": "1", "func_name": "fused_sum_9", "flatten_data": "0"}, "inputs": [[37, 0, 0]]}, {"op": "tvm_op", "name": "fused_multiply_layout_transform_2", "attrs": {"num_outputs": "1", "num_inputs": "1", "func_name": "fused_multiply_layout_transform_2", "flatten_data": "0"}, "inputs": [[38, 0, 0]]}, {"op": "null", "name": "p13", "inputs": []}, {"op": "tvm_op", "name": "fused_nn_contrib_conv2d_NCHWc_subtract_add_cast_cast_multiply_add_right_shift_ca_5975801909190603682__6", "attrs": {"num_outputs": "1", "num_inputs": "4", "func_name": "fused_nn_contrib_conv2d_NCHWc_subtract_add_cast_cast_multiply_add_right_shift_ca_5975801909190603682__6", "flatten_data": "0"}, "inputs": [[35, 0, 0], [36, 0, 0], [39, 0, 0], [40, 0, 0]]}, {"op": "null", "name": "p14", "inputs": []}, {"op": "tvm_op", "name": "fused_cast_layout_transform_3", "attrs": {"num_outputs": "1", "num_inputs": "1", "func_name": "fused_cast_layout_transform_3", "flatten_data": "0"}, "inputs": [[41, 0, 0]]}, {"op": "tvm_op", "name": "fused_sum_10", "attrs": {"num_outputs": "1", "num_inputs": "1", "func_name": "fused_sum_10", "flatten_data": "0"}, "inputs": [[43, 0, 0]]}, {"op": "tvm_op", "name": "fused_multiply_layout_transform_3", "attrs": {"num_outputs": "1", "num_inputs": "1", "func_name": "fused_multiply_layout_transform_3", "flatten_data": "0"}, "inputs": [[44, 0, 0]]}, {"op": "null", "name": "p15", "inputs": []}, {"op": "null", "name": "p16", "inputs": []}, {"op": "tvm_op", "name": "fused_nn_contrib_conv2d_NCHWc_subtract_add_add_cast_cast_multiply_add_right_shif_9300672930971097004__13", "attrs": {"num_outputs": "1", "num_inputs": "5", "func_name": "fused_nn_contrib_conv2d_NCHWc_subtract_add_add_cast_cast_multiply_add_right_shif_9300672930971097004__13", "flatten_data": "0"}, "inputs": [[41, 0, 0], [42, 0, 0], [45, 0, 0], [46, 0, 0], [47, 0, 0]]}, {"op": "tvm_op", "name": "fused_nn_pad_7", "attrs": {"num_outputs": "1", "num_inputs": "1", "func_name": "fused_nn_pad_7", "flatten_data": "0"}, "inputs": [[48, 0, 0]]}, {"op": "null", "name": "p17", "inputs": []}, {"op": "tvm_op", "name": "fused_cast_multiply_2", "attrs": {"num_outputs": "1", "num_inputs": "1", "func_name": "fused_cast_multiply_2", "flatten_data": "0"}, "inputs": [[49, 0, 0]]}, {"op": "tvm_op", "name": "fused_nn_avg_pool2d_multiply_3", "attrs": {"num_outputs": "1", "num_inputs": "1", "func_name": "fused_nn_avg_pool2d_multiply_3", "flatten_data": "0"}, "inputs": [[51, 0, 0]]}, {"op": "null", "name": "p18", "inputs": []}, {"op": "tvm_op", "name": "fused_nn_contrib_depthwise_conv2d_NCHWc_subtract_add_cast_cast_multiply_add_righ_22436862876929056__13", "attrs": {"num_outputs": "1", "num_inputs": "4", "func_name": "fused_nn_contrib_depthwise_conv2d_NCHWc_subtract_add_cast_cast_multiply_add_righ_22436862876929056__13", "flatten_data": "0"}, "inputs": [[49, 0, 0], [50, 0, 0], [52, 0, 0], [53, 0, 0]]}, {"op": "null", "name": "p19", "inputs": []}, {"op": "tvm_op", "name": "fused_cast_layout_transform_21", "attrs": {"num_outputs": "1", "num_inputs": "1", "func_name": "fused_cast_layout_transform_2", "flatten_data": "0"}, "inputs": [[54, 0, 0]]}, {"op": "tvm_op", "name": "fused_sum_91", "attrs": {"num_outputs": "1", "num_inputs": "1", "func_name": "fused_sum_9", "flatten_data": "0"}, "inputs": [[56, 0, 0]]}, {"op": "tvm_op", "name": "fused_multiply_layout_transform_4", "attrs": {"num_outputs": "1", "num_inputs": "1", "func_name": "fused_multiply_layout_transform_4", "flatten_data": "0"}, "inputs": [[57, 0, 0]]}, {"op": "null", "name": "p20", "inputs": []}, {"op": "tvm_op", "name": "fused_nn_contrib_conv2d_NCHWc_subtract_add_cast_cast_multiply_add_right_shift_ca_10043713188680239510_", "attrs": {"num_outputs": "1", "num_inputs": "5", "func_name": "fused_nn_contrib_conv2d_NCHWc_subtract_add_cast_cast_multiply_add_right_shift_ca_10043713188680239510_", "flatten_data": "0"}, "inputs": [[54, 0, 0], [55, 0, 0], [58, 0, 0], [59, 0, 0], [41, 0, 0]]}, {"op": "null", "name": "p21", "inputs": []}, {"op": "tvm_op", "name": "fused_cast_layout_transform_31", "attrs": {"num_outputs": "1", "num_inputs": "1", "func_name": "fused_cast_layout_transform_3", "flatten_data": "0"}, "inputs": [[60, 0, 0]]}, {"op": "tvm_op", "name": "fused_sum_101", "attrs": {"num_outputs": "1", "num_inputs": "1", "func_name": "fused_sum_10", "flatten_data": "0"}, "inputs": [[62, 0, 0]]}, {"op": "tvm_op", "name": "fused_multiply_layout_transform_21", "attrs": {"num_outputs": "1", "num_inputs": "1", "func_name": "fused_multiply_layout_transform_2", "flatten_data": "0"}, "inputs": [[63, 0, 0]]}, {"op": "null", "name": "p22", "inputs": []}, {"op": "null", "name": "p23", "inputs": []}, {"op": "tvm_op", "name": "fused_nn_contrib_conv2d_NCHWc_subtract_add_add_cast_cast_multiply_add_right_shif_9300672930971097004__12", "attrs": {"num_outputs": "1", "num_inputs": "5", "func_name": "fused_nn_contrib_conv2d_NCHWc_subtract_add_add_cast_cast_multiply_add_right_shif_9300672930971097004__12", "flatten_data": "0"}, "inputs": [[60, 0, 0], [61, 0, 0], [64, 0, 0], [65, 0, 0], [66, 0, 0]]}, {"op": "tvm_op", "name": "fused_nn_pad_6", "attrs": {"num_outputs": "1", "num_inputs": "1", "func_name": "fused_nn_pad_6", "flatten_data": "0"}, "inputs": [[67, 0, 0]]}, {"op": "null", "name": "p24", "inputs": []}, {"op": "tvm_op", "name": "fused_cast_multiply_3", "attrs": {"num_outputs": "1", "num_inputs": "1", "func_name": "fused_cast_multiply_3", "flatten_data": "0"}, "inputs": [[68, 0, 0]]}, {"op": "tvm_op", "name": "fused_nn_avg_pool2d_multiply_4", "attrs": {"num_outputs": "1", "num_inputs": "1", "func_name": "fused_nn_avg_pool2d_multiply_4", "flatten_data": "0"}, "inputs": [[70, 0, 0]]}, {"op": "null", "name": "p25", "inputs": []}, {"op": "tvm_op", "name": "fused_nn_contrib_depthwise_conv2d_NCHWc_subtract_add_cast_cast_multiply_add_righ_22436862876929056__12", "attrs": {"num_outputs": "1", "num_inputs": "4", "func_name": "fused_nn_contrib_depthwise_conv2d_NCHWc_subtract_add_cast_cast_multiply_add_righ_22436862876929056__12", "flatten_data": "0"}, "inputs": [[68, 0, 0], [69, 0, 0], [71, 0, 0], [72, 0, 0]]}, {"op": "null", "name": "p26", "inputs": []}, {"op": "tvm_op", "name": "fused_cast_layout_transform_4", "attrs": {"num_outputs": "1", "num_inputs": "1", "func_name": "fused_cast_layout_transform_4", "flatten_data": "0"}, "inputs": [[73, 0, 0]]}, {"op": "tvm_op", "name": "fused_sum_11", "attrs": {"num_outputs": "1", "num_inputs": "1", "func_name": "fused_sum_11", "flatten_data": "0"}, "inputs": [[75, 0, 0]]}, {"op": "tvm_op", "name": "fused_multiply_layout_transform_5", "attrs": {"num_outputs": "1", "num_inputs": "1", "func_name": "fused_multiply_layout_transform_5", "flatten_data": "0"}, "inputs": [[76, 0, 0]]}, {"op": "null", "name": "p27", "inputs": []}, {"op": "tvm_op", "name": "fused_nn_contrib_conv2d_NCHWc_subtract_add_cast_cast_multiply_add_right_shift_ca_5975801909190603682__5", "attrs": {"num_outputs": "1", "num_inputs": "4", "func_name": "fused_nn_contrib_conv2d_NCHWc_subtract_add_cast_cast_multiply_add_right_shift_ca_5975801909190603682__5", "flatten_data": "0"}, "inputs": [[73, 0, 0], [74, 0, 0], [77, 0, 0], [78, 0, 0]]}, {"op": "null", "name": "p28", "inputs": []}, {"op": "tvm_op", "name": "fused_cast_layout_transform_5", "attrs": {"num_outputs": "1", "num_inputs": "1", "func_name": "fused_cast_layout_transform_5", "flatten_data": "0"}, "inputs": [[79, 0, 0]]}, {"op": "tvm_op", "name": "fused_sum_12", "attrs": {"num_outputs": "1", "num_inputs": "1", "func_name": "fused_sum_12", "flatten_data": "0"}, "inputs": [[81, 0, 0]]}, {"op": "tvm_op", "name": "fused_multiply_layout_transform_6", "attrs": {"num_outputs": "1", "num_inputs": "1", "func_name": "fused_multiply_layout_transform_6", "flatten_data": "0"}, "inputs": [[82, 0, 0]]}, {"op": "null", "name": "p29", "inputs": []}, {"op": "null", "name": "p30", "inputs": []}, {"op": "tvm_op", "name": "fused_nn_contrib_conv2d_NCHWc_subtract_add_add_cast_cast_multiply_add_right_shif_9300672930971097004__11", "attrs": {"num_outputs": "1", "num_inputs": "5", "func_name": "fused_nn_contrib_conv2d_NCHWc_subtract_add_add_cast_cast_multiply_add_right_shif_9300672930971097004__11", "flatten_data": "0"}, "inputs": [[79, 0, 0], [80, 0, 0], [83, 0, 0], [84, 0, 0], [85, 0, 0]]}, {"op": "tvm_op", "name": "fused_nn_pad_51", "attrs": {"num_outputs": "1", "num_inputs": "1", "func_name": "fused_nn_pad_5", "flatten_data": "0"}, "inputs": [[86, 0, 0]]}, {"op": "null", "name": "p31", "inputs": []}, {"op": "tvm_op", "name": "fused_cast_multiply_4", "attrs": {"num_outputs": "1", "num_inputs": "1", "func_name": "fused_cast_multiply_4", "flatten_data": "0"}, "inputs": [[87, 0, 0]]}, {"op": "tvm_op", "name": "fused_nn_avg_pool2d_multiply_5", "attrs": {"num_outputs": "1", "num_inputs": "1", "func_name": "fused_nn_avg_pool2d_multiply_5", "flatten_data": "0"}, "inputs": [[89, 0, 0]]}, {"op": "null", "name": "p32", "inputs": []}, {"op": "tvm_op", "name": "fused_nn_contrib_depthwise_conv2d_NCHWc_subtract_add_cast_cast_multiply_add_righ_22436862876929056__11", "attrs": {"num_outputs": "1", "num_inputs": "4", "func_name": "fused_nn_contrib_depthwise_conv2d_NCHWc_subtract_add_cast_cast_multiply_add_righ_22436862876929056__11", "flatten_data": "0"}, "inputs": [[87, 0, 0], [88, 0, 0], [90, 0, 0], [91, 0, 0]]}, {"op": "null", "name": "p33", "inputs": []}, {"op": "tvm_op", "name": "fused_cast_layout_transform_6", "attrs": {"num_outputs": "1", "num_inputs": "1", "func_name": "fused_cast_layout_transform_6", "flatten_data": "0"}, "inputs": [[92, 0, 0]]}, {"op": "tvm_op", "name": "fused_sum_13", "attrs": {"num_outputs": "1", "num_inputs": "1", "func_name": "fused_sum_13", "flatten_data": "0"}, "inputs": [[94, 0, 0]]}, {"op": "tvm_op", "name": "fused_multiply_layout_transform_7", "attrs": {"num_outputs": "1", "num_inputs": "1", "func_name": "fused_multiply_layout_transform_7", "flatten_data": "0"}, "inputs": [[95, 0, 0]]}, {"op": "null", "name": "p34", "inputs": []}, {"op": "tvm_op", "name": "fused_nn_contrib_conv2d_NCHWc_subtract_add_cast_cast_multiply_add_right_shift_ca_13906000306701884532__8", "attrs": {"num_outputs": "1", "num_inputs": "5", "func_name": "fused_nn_contrib_conv2d_NCHWc_subtract_add_cast_cast_multiply_add_right_shift_ca_13906000306701884532__8", "flatten_data": "0"}, "inputs": [[92, 0, 0], [93, 0, 0], [96, 0, 0], [97, 0, 0], [79, 0, 0]]}, {"op": "null", "name": "p35", "inputs": []}, {"op": "tvm_op", "name": "fused_cast_layout_transform_51", "attrs": {"num_outputs": "1", "num_inputs": "1", "func_name": "fused_cast_layout_transform_5", "flatten_data": "0"}, "inputs": [[98, 0, 0]]}, {"op": "tvm_op", "name": "fused_sum_121", "attrs": {"num_outputs": "1", "num_inputs": "1", "func_name": "fused_sum_12", "flatten_data": "0"}, "inputs": [[100, 0, 0]]}, {"op": "tvm_op", "name": "fused_multiply_layout_transform_8", "attrs": {"num_outputs": "1", "num_inputs": "1", "func_name": "fused_multiply_layout_transform_8", "flatten_data": "0"}, "inputs": [[101, 0, 0]]}, {"op": "null", "name": "p36", "inputs": []}, {"op": "null", "name": "p37", "inputs": []}, {"op": "tvm_op", "name": "fused_nn_contrib_conv2d_NCHWc_subtract_add_add_cast_cast_multiply_add_right_shif_9300672930971097004__10", "attrs": {"num_outputs": "1", "num_inputs": "5", "func_name": "fused_nn_contrib_conv2d_NCHWc_subtract_add_add_cast_cast_multiply_add_right_shif_9300672930971097004__10", "flatten_data": "0"}, "inputs": [[98, 0, 0], [99, 0, 0], [102, 0, 0], [103, 0, 0], [104, 0, 0]]}, {"op": "tvm_op", "name": "fused_nn_pad_5", "attrs": {"num_outputs": "1", "num_inputs": "1", "func_name": "fused_nn_pad_5", "flatten_data": "0"}, "inputs": [[105, 0, 0]]}, {"op": "null", "name": "p38", "inputs": []}, {"op": "tvm_op", "name": "fused_cast_multiply_41", "attrs": {"num_outputs": "1", "num_inputs": "1", "func_name": "fused_cast_multiply_4", "flatten_data": "0"}, "inputs": [[106, 0, 0]]}, {"op": "tvm_op", "name": "fused_nn_avg_pool2d_multiply_6", "attrs": {"num_outputs": "1", "num_inputs": "1", "func_name": "fused_nn_avg_pool2d_multiply_6", "flatten_data": "0"}, "inputs": [[108, 0, 0]]}, {"op": "null", "name": "p39", "inputs": []}, {"op": "tvm_op", "name": "fused_nn_contrib_depthwise_conv2d_NCHWc_subtract_add_cast_cast_multiply_add_righ_22436862876929056__10", "attrs": {"num_outputs": "1", "num_inputs": "4", "func_name": "fused_nn_contrib_depthwise_conv2d_NCHWc_subtract_add_cast_cast_multiply_add_righ_22436862876929056__10", "flatten_data": "0"}, "inputs": [[106, 0, 0], [107, 0, 0], [109, 0, 0], [110, 0, 0]]}, {"op": "null", "name": "p40", "inputs": []}, {"op": "tvm_op", "name": "fused_cast_layout_transform_61", "attrs": {"num_outputs": "1", "num_inputs": "1", "func_name": "fused_cast_layout_transform_6", "flatten_data": "0"}, "inputs": [[111, 0, 0]]}, {"op": "tvm_op", "name": "fused_sum_131", "attrs": {"num_outputs": "1", "num_inputs": "1", "func_name": "fused_sum_13", "flatten_data": "0"}, "inputs": [[113, 0, 0]]}, {"op": "tvm_op", "name": "fused_multiply_layout_transform_9", "attrs": {"num_outputs": "1", "num_inputs": "1", "func_name": "fused_multiply_layout_transform_9", "flatten_data": "0"}, "inputs": [[114, 0, 0]]}, {"op": "null", "name": "p41", "inputs": []}, {"op": "tvm_op", "name": "fused_nn_contrib_conv2d_NCHWc_subtract_add_cast_cast_multiply_add_right_shift_ca_13906000306701884532__7", "attrs": {"num_outputs": "1", "num_inputs": "5", "func_name": "fused_nn_contrib_conv2d_NCHWc_subtract_add_cast_cast_multiply_add_right_shift_ca_13906000306701884532__7", "flatten_data": "0"}, "inputs": [[111, 0, 0], [112, 0, 0], [115, 0, 0], [116, 0, 0], [98, 0, 0]]}, {"op": "null", "name": "p42", "inputs": []}, {"op": "tvm_op", "name": "fused_cast_layout_transform_52", "attrs": {"num_outputs": "1", "num_inputs": "1", "func_name": "fused_cast_layout_transform_5", "flatten_data": "0"}, "inputs": [[117, 0, 0]]}, {"op": "tvm_op", "name": "fused_sum_122", "attrs": {"num_outputs": "1", "num_inputs": "1", "func_name": "fused_sum_12", "flatten_data": "0"}, "inputs": [[119, 0, 0]]}, {"op": "tvm_op", "name": "fused_multiply_layout_transform_10", "attrs": {"num_outputs": "1", "num_inputs": "1", "func_name": "fused_multiply_layout_transform_10", "flatten_data": "0"}, "inputs": [[120, 0, 0]]}, {"op": "null", "name": "p43", "inputs": []}, {"op": "null", "name": "p44", "inputs": []}, {"op": "tvm_op", "name": "fused_nn_contrib_conv2d_NCHWc_subtract_add_add_cast_cast_multiply_add_right_shif_9300672930971097004__9", "attrs": {"num_outputs": "1", "num_inputs": "5", "func_name": "fused_nn_contrib_conv2d_NCHWc_subtract_add_add_cast_cast_multiply_add_right_shif_9300672930971097004__9", "flatten_data": "0"}, "inputs": [[117, 0, 0], [118, 0, 0], [121, 0, 0], [122, 0, 0], [123, 0, 0]]}, {"op": "tvm_op", "name": "fused_nn_pad_4", "attrs": {"num_outputs": "1", "num_inputs": "1", "func_name": "fused_nn_pad_4", "flatten_data": "0"}, "inputs": [[124, 0, 0]]}, {"op": "null", "name": "p45", "inputs": []}, {"op": "tvm_op", "name": "fused_cast_multiply_5", "attrs": {"num_outputs": "1", "num_inputs": "1", "func_name": "fused_cast_multiply_5", "flatten_data": "0"}, "inputs": [[125, 0, 0]]}, {"op": "tvm_op", "name": "fused_nn_avg_pool2d", "attrs": {"num_outputs": "1", "num_inputs": "1", "func_name": "fused_nn_avg_pool2d", "flatten_data": "0"}, "inputs": [[127, 0, 0]]}, {"op": "null", "name": "p46", "inputs": []}, {"op": "tvm_op", "name": "fused_nn_contrib_depthwise_conv2d_NCHWc_subtract_add_cast_cast_multiply_add_righ_22436862876929056__9", "attrs": {"num_outputs": "1", "num_inputs": "4", "func_name": "fused_nn_contrib_depthwise_conv2d_NCHWc_subtract_add_cast_cast_multiply_add_righ_22436862876929056__9", "flatten_data": "0"}, "inputs": [[125, 0, 0], [126, 0, 0], [128, 0, 0], [129, 0, 0]]}, {"op": "null", "name": "p47", "inputs": []}, {"op": "tvm_op", "name": "fused_cast_layout_transform_7", "attrs": {"num_outputs": "1", "num_inputs": "1", "func_name": "fused_cast_layout_transform_7", "flatten_data": "0"}, "inputs": [[130, 0, 0]]}, {"op": "tvm_op", "name": "fused_sum_14", "attrs": {"num_outputs": "1", "num_inputs": "1", "func_name": "fused_sum_14", "flatten_data": "0"}, "inputs": [[132, 0, 0]]}, {"op": "tvm_op", "name": "fused_multiply_layout_transform_11", "attrs": {"num_outputs": "1", "num_inputs": "1", "func_name": "fused_multiply_layout_transform_11", "flatten_data": "0"}, "inputs": [[133, 0, 0]]}, {"op": "null", "name": "p48", "inputs": []}, {"op": "tvm_op", "name": "fused_nn_contrib_conv2d_NCHWc_subtract_add_cast_cast_multiply_add_right_shift_ca_5975801909190603682__4", "attrs": {"num_outputs": "1", "num_inputs": "4", "func_name": "fused_nn_contrib_conv2d_NCHWc_subtract_add_cast_cast_multiply_add_right_shift_ca_5975801909190603682__4", "flatten_data": "0"}, "inputs": [[130, 0, 0], [131, 0, 0], [134, 0, 0], [135, 0, 0]]}, {"op": "null", "name": "p49", "inputs": []}, {"op": "tvm_op", "name": "fused_cast_layout_transform_8", "attrs": {"num_outputs": "1", "num_inputs": "1", "func_name": "fused_cast_layout_transform_8", "flatten_data": "0"}, "inputs": [[136, 0, 0]]}, {"op": "tvm_op", "name": "fused_sum_15", "attrs": {"num_outputs": "1", "num_inputs": "1", "func_name": "fused_sum_15", "flatten_data": "0"}, "inputs": [[138, 0, 0]]}, {"op": "tvm_op", "name": "fused_multiply_layout_transform_12", "attrs": {"num_outputs": "1", "num_inputs": "1", "func_name": "fused_multiply_layout_transform_12", "flatten_data": "0"}, "inputs": [[139, 0, 0]]}, {"op": "null", "name": "p50", "inputs": []}, {"op": "null", "name": "p51", "inputs": []}, {"op": "tvm_op", "name": "fused_nn_contrib_conv2d_NCHWc_subtract_add_add_cast_cast_multiply_add_right_shif_9300672930971097004__8", "attrs": {"num_outputs": "1", "num_inputs": "5", "func_name": "fused_nn_contrib_conv2d_NCHWc_subtract_add_add_cast_cast_multiply_add_right_shif_9300672930971097004__8", "flatten_data": "0"}, "inputs": [[136, 0, 0], [137, 0, 0], [140, 0, 0], [141, 0, 0], [142, 0, 0]]}, {"op": "tvm_op", "name": "fused_nn_pad_33", "attrs": {"num_outputs": "1", "num_inputs": "1", "func_name": "fused_nn_pad_3", "flatten_data": "0"}, "inputs": [[143, 0, 0]]}, {"op": "null", "name": "p52", "inputs": []}, {"op": "tvm_op", "name": "fused_cast_multiply_6", "attrs": {"num_outputs": "1", "num_inputs": "1", "func_name": "fused_cast_multiply_6", "flatten_data": "0"}, "inputs": [[144, 0, 0]]}, {"op": "tvm_op", "name": "fused_nn_avg_pool2d_multiply_7", "attrs": {"num_outputs": "1", "num_inputs": "1", "func_name": "fused_nn_avg_pool2d_multiply_7", "flatten_data": "0"}, "inputs": [[146, 0, 0]]}, {"op": "null", "name": "p53", "inputs": []}, {"op": "tvm_op", "name": "fused_nn_contrib_depthwise_conv2d_NCHWc_subtract_add_cast_cast_multiply_add_righ_22436862876929056__8", "attrs": {"num_outputs": "1", "num_inputs": "4", "func_name": "fused_nn_contrib_depthwise_conv2d_NCHWc_subtract_add_cast_cast_multiply_add_righ_22436862876929056__8", "flatten_data": "0"}, "inputs": [[144, 0, 0], [145, 0, 0], [147, 0, 0], [148, 0, 0]]}, {"op": "null", "name": "p54", "inputs": []}, {"op": "tvm_op", "name": "fused_cast_layout_transform_9", "attrs": {"num_outputs": "1", "num_inputs": "1", "func_name": "fused_cast_layout_transform_9", "flatten_data": "0"}, "inputs": [[149, 0, 0]]}, {"op": "tvm_op", "name": "fused_sum_16", "attrs": {"num_outputs": "1", "num_inputs": "1", "func_name": "fused_sum_16", "flatten_data": "0"}, "inputs": [[151, 0, 0]]}, {"op": "tvm_op", "name": "fused_multiply_layout_transform_13", "attrs": {"num_outputs": "1", "num_inputs": "1", "func_name": "fused_multiply_layout_transform_13", "flatten_data": "0"}, "inputs": [[152, 0, 0]]}, {"op": "null", "name": "p55", "inputs": []}, {"op": "tvm_op", "name": "fused_nn_contrib_conv2d_NCHWc_subtract_add_cast_cast_multiply_add_right_shift_ca_13906000306701884532__6", "attrs": {"num_outputs": "1", "num_inputs": "5", "func_name": "fused_nn_contrib_conv2d_NCHWc_subtract_add_cast_cast_multiply_add_right_shift_ca_13906000306701884532__6", "flatten_data": "0"}, "inputs": [[149, 0, 0], [150, 0, 0], [153, 0, 0], [154, 0, 0], [136, 0, 0]]}, {"op": "null", "name": "p56", "inputs": []}, {"op": "tvm_op", "name": "fused_cast_layout_transform_81", "attrs": {"num_outputs": "1", "num_inputs": "1", "func_name": "fused_cast_layout_transform_8", "flatten_data": "0"}, "inputs": [[155, 0, 0]]}, {"op": "tvm_op", "name": "fused_sum_151", "attrs": {"num_outputs": "1", "num_inputs": "1", "func_name": "fused_sum_15", "flatten_data": "0"}, "inputs": [[157, 0, 0]]}, {"op": "tvm_op", "name": "fused_multiply_layout_transform_14", "attrs": {"num_outputs": "1", "num_inputs": "1", "func_name": "fused_multiply_layout_transform_14", "flatten_data": "0"}, "inputs": [[158, 0, 0]]}, {"op": "null", "name": "p57", "inputs": []}, {"op": "null", "name": "p58", "inputs": []}, {"op": "tvm_op", "name": "fused_nn_contrib_conv2d_NCHWc_subtract_add_add_cast_cast_multiply_add_right_shif_9300672930971097004__7", "attrs": {"num_outputs": "1", "num_inputs": "5", "func_name": "fused_nn_contrib_conv2d_NCHWc_subtract_add_add_cast_cast_multiply_add_right_shif_9300672930971097004__7", "flatten_data": "0"}, "inputs": [[155, 0, 0], [156, 0, 0], [159, 0, 0], [160, 0, 0], [161, 0, 0]]}, {"op": "tvm_op", "name": "fused_nn_pad_32", "attrs": {"num_outputs": "1", "num_inputs": "1", "func_name": "fused_nn_pad_3", "flatten_data": "0"}, "inputs": [[162, 0, 0]]}, {"op": "null", "name": "p59", "inputs": []}, {"op": "null", "name": "p60", "inputs": []}, {"op": "tvm_op", "name": "fused_nn_contrib_depthwise_conv2d_NCHWc_add_cast_cast_multiply_add_right_shift_c_2453501175517731727_", "attrs": {"num_outputs": "1", "num_inputs": "3", "func_name": "fused_nn_contrib_depthwise_conv2d_NCHWc_add_cast_cast_multiply_add_right_shift_c_2453501175517731727_", "flatten_data": "0"}, "inputs": [[163, 0, 0], [164, 0, 0], [165, 0, 0]]}, {"op": "null", "name": "p61", "inputs": []}, {"op": "tvm_op", "name": "fused_cast_layout_transform_91", "attrs": {"num_outputs": "1", "num_inputs": "1", "func_name": "fused_cast_layout_transform_9", "flatten_data": "0"}, "inputs": [[166, 0, 0]]}, {"op": "tvm_op", "name": "fused_sum_161", "attrs": {"num_outputs": "1", "num_inputs": "1", "func_name": "fused_sum_16", "flatten_data": "0"}, "inputs": [[168, 0, 0]]}, {"op": "tvm_op", "name": "fused_multiply_layout_transform_15", "attrs": {"num_outputs": "1", "num_inputs": "1", "func_name": "fused_multiply_layout_transform_15", "flatten_data": "0"}, "inputs": [[169, 0, 0]]}, {"op": "null", "name": "p62", "inputs": []}, {"op": "tvm_op", "name": "fused_nn_contrib_conv2d_NCHWc_subtract_add_cast_cast_multiply_add_right_shift_ca_13906000306701884532__5", "attrs": {"num_outputs": "1", "num_inputs": "5", "func_name": "fused_nn_contrib_conv2d_NCHWc_subtract_add_cast_cast_multiply_add_right_shift_ca_13906000306701884532__5", "flatten_data": "0"}, "inputs": [[166, 0, 0], [167, 0, 0], [170, 0, 0], [171, 0, 0], [155, 0, 0]]}, {"op": "null", "name": "p63", "inputs": []}, {"op": "tvm_op", "name": "fused_cast_layout_transform_82", "attrs": {"num_outputs": "1", "num_inputs": "1", "func_name": "fused_cast_layout_transform_8", "flatten_data": "0"}, "inputs": [[172, 0, 0]]}, {"op": "tvm_op", "name": "fused_sum_152", "attrs": {"num_outputs": "1", "num_inputs": "1", "func_name": "fused_sum_15", "flatten_data": "0"}, "inputs": [[174, 0, 0]]}, {"op": "tvm_op", "name": "fused_multiply_layout_transform_16", "attrs": {"num_outputs": "1", "num_inputs": "1", "func_name": "fused_multiply_layout_transform_16", "flatten_data": "0"}, "inputs": [[175, 0, 0]]}, {"op": "null", "name": "p64", "inputs": []}, {"op": "null", "name": "p65", "inputs": []}, {"op": "tvm_op", "name": "fused_nn_contrib_conv2d_NCHWc_subtract_add_add_cast_cast_multiply_add_right_shif_9300672930971097004__6", "attrs": {"num_outputs": "1", "num_inputs": "5", "func_name": "fused_nn_contrib_conv2d_NCHWc_subtract_add_add_cast_cast_multiply_add_right_shif_9300672930971097004__6", "flatten_data": "0"}, "inputs": [[172, 0, 0], [173, 0, 0], [176, 0, 0], [177, 0, 0], [178, 0, 0]]}, {"op": "tvm_op", "name": "fused_nn_pad_31", "attrs": {"num_outputs": "1", "num_inputs": "1", "func_name": "fused_nn_pad_3", "flatten_data": "0"}, "inputs": [[179, 0, 0]]}, {"op": "null", "name": "p66", "inputs": []}, {"op": "tvm_op", "name": "fused_cast_multiply_61", "attrs": {"num_outputs": "1", "num_inputs": "1", "func_name": "fused_cast_multiply_6", "flatten_data": "0"}, "inputs": [[180, 0, 0]]}, {"op": "tvm_op", "name": "fused_nn_avg_pool2d_multiply_8", "attrs": {"num_outputs": "1", "num_inputs": "1", "func_name": "fused_nn_avg_pool2d_multiply_8", "flatten_data": "0"}, "inputs": [[182, 0, 0]]}, {"op": "null", "name": "p67", "inputs": []}, {"op": "tvm_op", "name": "fused_nn_contrib_depthwise_conv2d_NCHWc_subtract_add_cast_cast_multiply_add_righ_22436862876929056__7", "attrs": {"num_outputs": "1", "num_inputs": "4", "func_name": "fused_nn_contrib_depthwise_conv2d_NCHWc_subtract_add_cast_cast_multiply_add_righ_22436862876929056__7", "flatten_data": "0"}, "inputs": [[180, 0, 0], [181, 0, 0], [183, 0, 0], [184, 0, 0]]}, {"op": "null", "name": "p68", "inputs": []}, {"op": "tvm_op", "name": "fused_cast_layout_transform_92", "attrs": {"num_outputs": "1", "num_inputs": "1", "func_name": "fused_cast_layout_transform_9", "flatten_data": "0"}, "inputs": [[185, 0, 0]]}, {"op": "tvm_op", "name": "fused_sum_162", "attrs": {"num_outputs": "1", "num_inputs": "1", "func_name": "fused_sum_16", "flatten_data": "0"}, "inputs": [[187, 0, 0]]}, {"op": "tvm_op", "name": "fused_multiply_layout_transform_111", "attrs": {"num_outputs": "1", "num_inputs": "1", "func_name": "fused_multiply_layout_transform_11", "flatten_data": "0"}, "inputs": [[188, 0, 0]]}, {"op": "null", "name": "p69", "inputs": []}, {"op": "tvm_op", "name": "fused_nn_contrib_conv2d_NCHWc_subtract_add_cast_cast_multiply_add_right_shift_ca_13906000306701884532__4", "attrs": {"num_outputs": "1", "num_inputs": "5", "func_name": "fused_nn_contrib_conv2d_NCHWc_subtract_add_cast_cast_multiply_add_right_shift_ca_13906000306701884532__4", "flatten_data": "0"}, "inputs": [[185, 0, 0], [186, 0, 0], [189, 0, 0], [190, 0, 0], [172, 0, 0]]}, {"op": "null", "name": "p70", "inputs": []}, {"op": "tvm_op", "name": "fused_cast_layout_transform_83", "attrs": {"num_outputs": "1", "num_inputs": "1", "func_name": "fused_cast_layout_transform_8", "flatten_data": "0"}, "inputs": [[191, 0, 0]]}, {"op": "tvm_op", "name": "fused_sum_153", "attrs": {"num_outputs": "1", "num_inputs": "1", "func_name": "fused_sum_15", "flatten_data": "0"}, "inputs": [[193, 0, 0]]}, {"op": "tvm_op", "name": "fused_multiply_layout_transform_161", "attrs": {"num_outputs": "1", "num_inputs": "1", "func_name": "fused_multiply_layout_transform_16", "flatten_data": "0"}, "inputs": [[194, 0, 0]]}, {"op": "null", "name": "p71", "inputs": []}, {"op": "null", "name": "p72", "inputs": []}, {"op": "tvm_op", "name": "fused_nn_contrib_conv2d_NCHWc_subtract_add_add_cast_cast_multiply_add_right_shif_9300672930971097004__5", "attrs": {"num_outputs": "1", "num_inputs": "5", "func_name": "fused_nn_contrib_conv2d_NCHWc_subtract_add_add_cast_cast_multiply_add_right_shif_9300672930971097004__5", "flatten_data": "0"}, "inputs": [[191, 0, 0], [192, 0, 0], [195, 0, 0], [196, 0, 0], [197, 0, 0]]}, {"op": "tvm_op", "name": "fused_nn_pad_3", "attrs": {"num_outputs": "1", "num_inputs": "1", "func_name": "fused_nn_pad_3", "flatten_data": "0"}, "inputs": [[198, 0, 0]]}, {"op": "null", "name": "p73", "inputs": []}, {"op": "tvm_op", "name": "fused_cast_multiply_62", "attrs": {"num_outputs": "1", "num_inputs": "1", "func_name": "fused_cast_multiply_6", "flatten_data": "0"}, "inputs": [[199, 0, 0]]}, {"op": "tvm_op", "name": "fused_nn_avg_pool2d_multiply_81", "attrs": {"num_outputs": "1", "num_inputs": "1", "func_name": "fused_nn_avg_pool2d_multiply_8", "flatten_data": "0"}, "inputs": [[201, 0, 0]]}, {"op": "null", "name": "p74", "inputs": []}, {"op": "tvm_op", "name": "fused_nn_contrib_depthwise_conv2d_NCHWc_subtract_add_cast_cast_multiply_add_righ_22436862876929056__6", "attrs": {"num_outputs": "1", "num_inputs": "4", "func_name": "fused_nn_contrib_depthwise_conv2d_NCHWc_subtract_add_cast_cast_multiply_add_righ_22436862876929056__6", "flatten_data": "0"}, "inputs": [[199, 0, 0], [200, 0, 0], [202, 0, 0], [203, 0, 0]]}, {"op": "null", "name": "p75", "inputs": []}, {"op": "tvm_op", "name": "fused_cast_layout_transform_93", "attrs": {"num_outputs": "1", "num_inputs": "1", "func_name": "fused_cast_layout_transform_9", "flatten_data": "0"}, "inputs": [[204, 0, 0]]}, {"op": "tvm_op", "name": "fused_sum_163", "attrs": {"num_outputs": "1", "num_inputs": "1", "func_name": "fused_sum_16", "flatten_data": "0"}, "inputs": [[206, 0, 0]]}, {"op": "tvm_op", "name": "fused_multiply_layout_transform_17", "attrs": {"num_outputs": "1", "num_inputs": "1", "func_name": "fused_multiply_layout_transform_17", "flatten_data": "0"}, "inputs": [[207, 0, 0]]}, {"op": "null", "name": "p76", "inputs": []}, {"op": "tvm_op", "name": "fused_nn_contrib_conv2d_NCHWc_subtract_add_cast_cast_multiply_add_right_shift_ca_5975801909190603682__3", "attrs": {"num_outputs": "1", "num_inputs": "4", "func_name": "fused_nn_contrib_conv2d_NCHWc_subtract_add_cast_cast_multiply_add_right_shift_ca_5975801909190603682__3", "flatten_data": "0"}, "inputs": [[204, 0, 0], [205, 0, 0], [208, 0, 0], [209, 0, 0]]}, {"op": "null", "name": "p77", "inputs": []}, {"op": "tvm_op", "name": "fused_cast_layout_transform_10", "attrs": {"num_outputs": "1", "num_inputs": "1", "func_name": "fused_cast_layout_transform_10", "flatten_data": "0"}, "inputs": [[210, 0, 0]]}, {"op": "tvm_op", "name": "fused_sum_17", "attrs": {"num_outputs": "1", "num_inputs": "1", "func_name": "fused_sum_17", "flatten_data": "0"}, "inputs": [[212, 0, 0]]}, {"op": "tvm_op", "name": "fused_multiply_layout_transform_18", "attrs": {"num_outputs": "1", "num_inputs": "1", "func_name": "fused_multiply_layout_transform_18", "flatten_data": "0"}, "inputs": [[213, 0, 0]]}, {"op": "null", "name": "p78", "inputs": []}, {"op": "null", "name": "p79", "inputs": []}, {"op": "tvm_op", "name": "fused_nn_contrib_conv2d_NCHWc_subtract_add_add_cast_cast_multiply_add_right_shif_9300672930971097004__4", "attrs": {"num_outputs": "1", "num_inputs": "5", "func_name": "fused_nn_contrib_conv2d_NCHWc_subtract_add_add_cast_cast_multiply_add_right_shif_9300672930971097004__4", "flatten_data": "0"}, "inputs": [[210, 0, 0], [211, 0, 0], [214, 0, 0], [215, 0, 0], [216, 0, 0]]}, {"op": "tvm_op", "name": "fused_nn_pad_21", "attrs": {"num_outputs": "1", "num_inputs": "1", "func_name": "fused_nn_pad_2", "flatten_data": "0"}, "inputs": [[217, 0, 0]]}, {"op": "null", "name": "p80", "inputs": []}, {"op": "tvm_op", "name": "fused_cast_multiply_7", "attrs": {"num_outputs": "1", "num_inputs": "1", "func_name": "fused_cast_multiply_7", "flatten_data": "0"}, "inputs": [[218, 0, 0]]}, {"op": "tvm_op", "name": "fused_nn_avg_pool2d_multiply_9", "attrs": {"num_outputs": "1", "num_inputs": "1", "func_name": "fused_nn_avg_pool2d_multiply_9", "flatten_data": "0"}, "inputs": [[220, 0, 0]]}, {"op": "null", "name": "p81", "inputs": []}, {"op": "tvm_op", "name": "fused_nn_contrib_depthwise_conv2d_NCHWc_subtract_add_cast_cast_multiply_add_righ_22436862876929056__5", "attrs": {"num_outputs": "1", "num_inputs": "4", "func_name": "fused_nn_contrib_depthwise_conv2d_NCHWc_subtract_add_cast_cast_multiply_add_righ_22436862876929056__5", "flatten_data": "0"}, "inputs": [[218, 0, 0], [219, 0, 0], [221, 0, 0], [222, 0, 0]]}, {"op": "null", "name": "p82", "inputs": []}, {"op": "tvm_op", "name": "fused_cast_layout_transform_11", "attrs": {"num_outputs": "1", "num_inputs": "1", "func_name": "fused_cast_layout_transform_11", "flatten_data": "0"}, "inputs": [[223, 0, 0]]}, {"op": "tvm_op", "name": "fused_sum_18", "attrs": {"num_outputs": "1", "num_inputs": "1", "func_name": "fused_sum_18", "flatten_data": "0"}, "inputs": [[225, 0, 0]]}, {"op": "tvm_op", "name": "fused_multiply_layout_transform_19", "attrs": {"num_outputs": "1", "num_inputs": "1", "func_name": "fused_multiply_layout_transform_19", "flatten_data": "0"}, "inputs": [[226, 0, 0]]}, {"op": "null", "name": "p83", "inputs": []}, {"op": "tvm_op", "name": "fused_nn_contrib_conv2d_NCHWc_subtract_add_cast_cast_multiply_add_right_shift_ca_13906000306701884532__3", "attrs": {"num_outputs": "1", "num_inputs": "5", "func_name": "fused_nn_contrib_conv2d_NCHWc_subtract_add_cast_cast_multiply_add_right_shift_ca_13906000306701884532__3", "flatten_data": "0"}, "inputs": [[223, 0, 0], [224, 0, 0], [227, 0, 0], [228, 0, 0], [210, 0, 0]]}, {"op": "null", "name": "p84", "inputs": []}, {"op": "tvm_op", "name": "fused_cast_layout_transform_101", "attrs": {"num_outputs": "1", "num_inputs": "1", "func_name": "fused_cast_layout_transform_10", "flatten_data": "0"}, "inputs": [[229, 0, 0]]}, {"op": "tvm_op", "name": "fused_sum_171", "attrs": {"num_outputs": "1", "num_inputs": "1", "func_name": "fused_sum_17", "flatten_data": "0"}, "inputs": [[231, 0, 0]]}, {"op": "tvm_op", "name": "fused_multiply_layout_transform_20", "attrs": {"num_outputs": "1", "num_inputs": "1", "func_name": "fused_multiply_layout_transform_20", "flatten_data": "0"}, "inputs": [[232, 0, 0]]}, {"op": "null", "name": "p85", "inputs": []}, {"op": "null", "name": "p86", "inputs": []}, {"op": "tvm_op", "name": "fused_nn_contrib_conv2d_NCHWc_subtract_add_add_cast_cast_multiply_add_right_shif_9300672930971097004__3", "attrs": {"num_outputs": "1", "num_inputs": "5", "func_name": "fused_nn_contrib_conv2d_NCHWc_subtract_add_add_cast_cast_multiply_add_right_shif_9300672930971097004__3", "flatten_data": "0"}, "inputs": [[229, 0, 0], [230, 0, 0], [233, 0, 0], [234, 0, 0], [235, 0, 0]]}, {"op": "tvm_op", "name": "fused_nn_pad_2", "attrs": {"num_outputs": "1", "num_inputs": "1", "func_name": "fused_nn_pad_2", "flatten_data": "0"}, "inputs": [[236, 0, 0]]}, {"op": "null", "name": "p87", "inputs": []}, {"op": "tvm_op", "name": "fused_cast_multiply_71", "attrs": {"num_outputs": "1", "num_inputs": "1", "func_name": "fused_cast_multiply_7", "flatten_data": "0"}, "inputs": [[237, 0, 0]]}, {"op": "tvm_op", "name": "fused_nn_avg_pool2d_multiply_10", "attrs": {"num_outputs": "1", "num_inputs": "1", "func_name": "fused_nn_avg_pool2d_multiply_10", "flatten_data": "0"}, "inputs": [[239, 0, 0]]}, {"op": "null", "name": "p88", "inputs": []}, {"op": "tvm_op", "name": "fused_nn_contrib_depthwise_conv2d_NCHWc_subtract_add_cast_cast_multiply_add_righ_22436862876929056__4", "attrs": {"num_outputs": "1", "num_inputs": "4", "func_name": "fused_nn_contrib_depthwise_conv2d_NCHWc_subtract_add_cast_cast_multiply_add_righ_22436862876929056__4", "flatten_data": "0"}, "inputs": [[237, 0, 0], [238, 0, 0], [240, 0, 0], [241, 0, 0]]}, {"op": "null", "name": "p89", "inputs": []}, {"op": "tvm_op", "name": "fused_cast_layout_transform_111", "attrs": {"num_outputs": "1", "num_inputs": "1", "func_name": "fused_cast_layout_transform_11", "flatten_data": "0"}, "inputs": [[242, 0, 0]]}, {"op": "tvm_op", "name": "fused_sum_181", "attrs": {"num_outputs": "1", "num_inputs": "1", "func_name": "fused_sum_18", "flatten_data": "0"}, "inputs": [[244, 0, 0]]}, {"op": "tvm_op", "name": "fused_multiply_layout_transform_131", "attrs": {"num_outputs": "1", "num_inputs": "1", "func_name": "fused_multiply_layout_transform_13", "flatten_data": "0"}, "inputs": [[245, 0, 0]]}, {"op": "null", "name": "p90", "inputs": []}, {"op": "tvm_op", "name": "fused_nn_contrib_conv2d_NCHWc_subtract_add_cast_cast_multiply_add_right_shift_ca_13906000306701884532__2", "attrs": {"num_outputs": "1", "num_inputs": "5", "func_name": "fused_nn_contrib_conv2d_NCHWc_subtract_add_cast_cast_multiply_add_right_shift_ca_13906000306701884532__2", "flatten_data": "0"}, "inputs": [[242, 0, 0], [243, 0, 0], [246, 0, 0], [247, 0, 0], [229, 0, 0]]}, {"op": "null", "name": "p91", "inputs": []}, {"op": "tvm_op", "name": "fused_cast_layout_transform_102", "attrs": {"num_outputs": "1", "num_inputs": "1", "func_name": "fused_cast_layout_transform_10", "flatten_data": "0"}, "inputs": [[248, 0, 0]]}, {"op": "tvm_op", "name": "fused_sum_172", "attrs": {"num_outputs": "1", "num_inputs": "1", "func_name": "fused_sum_17", "flatten_data": "0"}, "inputs": [[250, 0, 0]]}, {"op": "tvm_op", "name": "fused_multiply_layout_transform_141", "attrs": {"num_outputs": "1", "num_inputs": "1", "func_name": "fused_multiply_layout_transform_14", "flatten_data": "0"}, "inputs": [[251, 0, 0]]}, {"op": "null", "name": "p92", "inputs": []}, {"op": "null", "name": "p93", "inputs": []}, {"op": "tvm_op", "name": "fused_nn_contrib_conv2d_NCHWc_subtract_add_add_cast_cast_multiply_add_right_shif_9300672930971097004__2", "attrs": {"num_outputs": "1", "num_inputs": "5", "func_name": "fused_nn_contrib_conv2d_NCHWc_subtract_add_add_cast_cast_multiply_add_right_shif_9300672930971097004__2", "flatten_data": "0"}, "inputs": [[248, 0, 0], [249, 0, 0], [252, 0, 0], [253, 0, 0], [254, 0, 0]]}, {"op": "tvm_op", "name": "fused_nn_pad_1", "attrs": {"num_outputs": "1", "num_inputs": "1", "func_name": "fused_nn_pad_1", "flatten_data": "0"}, "inputs": [[255, 0, 0]]}, {"op": "null", "name": "p94", "inputs": []}, {"op": "tvm_op", "name": "fused_cast_multiply_8", "attrs": {"num_outputs": "1", "num_inputs": "1", "func_name": "fused_cast_multiply_8", "flatten_data": "0"}, "inputs": [[256, 0, 0]]}, {"op": "tvm_op", "name": "fused_nn_avg_pool2d_multiply_11", "attrs": {"num_outputs": "1", "num_inputs": "1", "func_name": "fused_nn_avg_pool2d_multiply_11", "flatten_data": "0"}, "inputs": [[258, 0, 0]]}, {"op": "null", "name": "p95", "inputs": []}, {"op": "tvm_op", "name": "fused_nn_contrib_depthwise_conv2d_NCHWc_subtract_add_cast_cast_multiply_add_righ_22436862876929056__3", "attrs": {"num_outputs": "1", "num_inputs": "4", "func_name": "fused_nn_contrib_depthwise_conv2d_NCHWc_subtract_add_cast_cast_multiply_add_righ_22436862876929056__3", "flatten_data": "0"}, "inputs": [[256, 0, 0], [257, 0, 0], [259, 0, 0], [260, 0, 0]]}, {"op": "null", "name": "p96", "inputs": []}, {"op": "tvm_op", "name": "fused_cast_layout_transform_12", "attrs": {"num_outputs": "1", "num_inputs": "1", "func_name": "fused_cast_layout_transform_12", "flatten_data": "0"}, "inputs": [[261, 0, 0]]}, {"op": "tvm_op", "name": "fused_sum_19", "attrs": {"num_outputs": "1", "num_inputs": "1", "func_name": "fused_sum_19", "flatten_data": "0"}, "inputs": [[263, 0, 0]]}, {"op": "tvm_op", "name": "fused_multiply_layout_transform_211", "attrs": {"num_outputs": "1", "num_inputs": "1", "func_name": "fused_multiply_layout_transform_21", "flatten_data": "0"}, "inputs": [[264, 0, 0]]}, {"op": "null", "name": "p97", "inputs": []}, {"op": "tvm_op", "name": "fused_nn_contrib_conv2d_NCHWc_subtract_add_cast_cast_multiply_add_right_shift_ca_5975801909190603682__2", "attrs": {"num_outputs": "1", "num_inputs": "4", "func_name": "fused_nn_contrib_conv2d_NCHWc_subtract_add_cast_cast_multiply_add_right_shift_ca_5975801909190603682__2", "flatten_data": "0"}, "inputs": [[261, 0, 0], [262, 0, 0], [265, 0, 0], [266, 0, 0]]}, {"op": "null", "name": "p98", "inputs": []}, {"op": "tvm_op", "name": "fused_cast_layout_transform_13", "attrs": {"num_outputs": "1", "num_inputs": "1", "func_name": "fused_cast_layout_transform_13", "flatten_data": "0"}, "inputs": [[267, 0, 0]]}, {"op": "tvm_op", "name": "fused_sum_20", "attrs": {"num_outputs": "1", "num_inputs": "1", "func_name": "fused_sum_20", "flatten_data": "0"}, "inputs": [[269, 0, 0]]}, {"op": "tvm_op", "name": "fused_multiply_layout_transform_22", "attrs": {"num_outputs": "1", "num_inputs": "1", "func_name": "fused_multiply_layout_transform_22", "flatten_data": "0"}, "inputs": [[270, 0, 0]]}, {"op": "null", "name": "p99", "inputs": []}, {"op": "null", "name": "p100", "inputs": []}, {"op": "tvm_op", "name": "fused_nn_contrib_conv2d_NCHWc_subtract_add_add_cast_cast_multiply_add_right_shif_9300672930971097004__1", "attrs": {"num_outputs": "1", "num_inputs": "5", "func_name": "fused_nn_contrib_conv2d_NCHWc_subtract_add_add_cast_cast_multiply_add_right_shif_9300672930971097004__1", "flatten_data": "0"}, "inputs": [[267, 0, 0], [268, 0, 0], [271, 0, 0], [272, 0, 0], [273, 0, 0]]}, {"op": "tvm_op", "name": "fused_nn_pad2", "attrs": {"num_outputs": "1", "num_inputs": "1", "func_name": "fused_nn_pad", "flatten_data": "0"}, "inputs": [[274, 0, 0]]}, {"op": "null", "name": "p101", "inputs": []}, {"op": "tvm_op", "name": "fused_cast_multiply_9", "attrs": {"num_outputs": "1", "num_inputs": "1", "func_name": "fused_cast_multiply_9", "flatten_data": "0"}, "inputs": [[275, 0, 0]]}, {"op": "tvm_op", "name": "fused_nn_avg_pool2d_multiply_12", "attrs": {"num_outputs": "1", "num_inputs": "1", "func_name": "fused_nn_avg_pool2d_multiply_12", "flatten_data": "0"}, "inputs": [[277, 0, 0]]}, {"op": "null", "name": "p102", "inputs": []}, {"op": "tvm_op", "name": "fused_nn_contrib_depthwise_conv2d_NCHWc_subtract_add_cast_cast_multiply_add_righ_22436862876929056__2", "attrs": {"num_outputs": "1", "num_inputs": "4", "func_name": "fused_nn_contrib_depthwise_conv2d_NCHWc_subtract_add_cast_cast_multiply_add_righ_22436862876929056__2", "flatten_data": "0"}, "inputs": [[275, 0, 0], [276, 0, 0], [278, 0, 0], [279, 0, 0]]}, {"op": "null", "name": "p103", "inputs": []}, {"op": "tvm_op", "name": "fused_cast_layout_transform_14", "attrs": {"num_outputs": "1", "num_inputs": "1", "func_name": "fused_cast_layout_transform_14", "flatten_data": "0"}, "inputs": [[280, 0, 0]]}, {"op": "tvm_op", "name": "fused_sum_21", "attrs": {"num_outputs": "1", "num_inputs": "1", "func_name": "fused_sum_21", "flatten_data": "0"}, "inputs": [[282, 0, 0]]}, {"op": "tvm_op", "name": "fused_multiply_layout_transform_23", "attrs": {"num_outputs": "1", "num_inputs": "1", "func_name": "fused_multiply_layout_transform_23", "flatten_data": "0"}, "inputs": [[283, 0, 0]]}, {"op": "null", "name": "p104", "inputs": []}, {"op": "tvm_op", "name": "fused_nn_contrib_conv2d_NCHWc_subtract_add_cast_cast_multiply_add_right_shift_ca_13906000306701884532__1", "attrs": {"num_outputs": "1", "num_inputs": "5", "func_name": "fused_nn_contrib_conv2d_NCHWc_subtract_add_cast_cast_multiply_add_right_shift_ca_13906000306701884532__1", "flatten_data": "0"}, "inputs": [[280, 0, 0], [281, 0, 0], [284, 0, 0], [285, 0, 0], [267, 0, 0]]}, {"op": "null", "name": "p105", "inputs": []}, {"op": "null", "name": "p106", "inputs": []}, {"op": "null", "name": "p107", "inputs": []}, {"op": "tvm_op", "name": "fused_nn_contrib_conv2d_NCHWc_subtract_add_cast_cast_multiply_add_right_shift_ca_14954929879206059100_", "attrs": {"num_outputs": "1", "num_inputs": "4", "func_name": "fused_nn_contrib_conv2d_NCHWc_subtract_add_cast_cast_multiply_add_right_shift_ca_14954929879206059100_", "flatten_data": "0"}, "inputs": [[286, 0, 0], [287, 0, 0], [288, 0, 0], [289, 0, 0]]}, {"op": "tvm_op", "name": "fused_nn_pad1", "attrs": {"num_outputs": "1", "num_inputs": "1", "func_name": "fused_nn_pad", "flatten_data": "0"}, "inputs": [[290, 0, 0]]}, {"op": "null", "name": "p108", "inputs": []}, {"op": "tvm_op", "name": "fused_cast_multiply_91", "attrs": {"num_outputs": "1", "num_inputs": "1", "func_name": "fused_cast_multiply_9", "flatten_data": "0"}, "inputs": [[291, 0, 0]]}, {"op": "tvm_op", "name": "fused_nn_avg_pool2d_multiply_13", "attrs": {"num_outputs": "1", "num_inputs": "1", "func_name": "fused_nn_avg_pool2d_multiply_13", "flatten_data": "0"}, "inputs": [[293, 0, 0]]}, {"op": "null", "name": "p109", "inputs": []}, {"op": "tvm_op", "name": "fused_nn_contrib_depthwise_conv2d_NCHWc_subtract_add_cast_cast_multiply_add_righ_22436862876929056__1", "attrs": {"num_outputs": "1", "num_inputs": "4", "func_name": "fused_nn_contrib_depthwise_conv2d_NCHWc_subtract_add_cast_cast_multiply_add_righ_22436862876929056__1", "flatten_data": "0"}, "inputs": [[291, 0, 0], [292, 0, 0], [294, 0, 0], [295, 0, 0]]}, {"op": "null", "name": "p110", "inputs": []}, {"op": "tvm_op", "name": "fused_cast_layout_transform_141", "attrs": {"num_outputs": "1", "num_inputs": "1", "func_name": "fused_cast_layout_transform_14", "flatten_data": "0"}, "inputs": [[296, 0, 0]]}, {"op": "tvm_op", "name": "fused_sum_211", "attrs": {"num_outputs": "1", "num_inputs": "1", "func_name": "fused_sum_21", "flatten_data": "0"}, "inputs": [[298, 0, 0]]}, {"op": "tvm_op", "name": "fused_multiply_layout_transform_24", "attrs": {"num_outputs": "1", "num_inputs": "1", "func_name": "fused_multiply_layout_transform_24", "flatten_data": "0"}, "inputs": [[299, 0, 0]]}, {"op": "null", "name": "p111", "inputs": []}, {"op": "tvm_op", "name": "fused_nn_contrib_conv2d_NCHWc_subtract_add_cast_cast_multiply_add_right_shift_ca_13906000306701884532_", "attrs": {"num_outputs": "1", "num_inputs": "5", "func_name": "fused_nn_contrib_conv2d_NCHWc_subtract_add_cast_cast_multiply_add_right_shift_ca_13906000306701884532_", "flatten_data": "0"}, "inputs": [[296, 0, 0], [297, 0, 0], [300, 0, 0], [301, 0, 0], [286, 0, 0]]}, {"op": "null", "name": "p112", "inputs": []}, {"op": "tvm_op", "name": "fused_cast_layout_transform_131", "attrs": {"num_outputs": "1", "num_inputs": "1", "func_name": "fused_cast_layout_transform_13", "flatten_data": "0"}, "inputs": [[302, 0, 0]]}, {"op": "tvm_op", "name": "fused_sum_201", "attrs": {"num_outputs": "1", "num_inputs": "1", "func_name": "fused_sum_20", "flatten_data": "0"}, "inputs": [[304, 0, 0]]}, {"op": "tvm_op", "name": "fused_multiply_layout_transform_25", "attrs": {"num_outputs": "1", "num_inputs": "1", "func_name": "fused_multiply_layout_transform_25", "flatten_data": "0"}, "inputs": [[305, 0, 0]]}, {"op": "null", "name": "p113", "inputs": []}, {"op": "null", "name": "p114", "inputs": []}, {"op": "tvm_op", "name": "fused_nn_contrib_conv2d_NCHWc_subtract_add_add_cast_cast_multiply_add_right_shif_9300672930971097004_", "attrs": {"num_outputs": "1", "num_inputs": "5", "func_name": "fused_nn_contrib_conv2d_NCHWc_subtract_add_add_cast_cast_multiply_add_right_shif_9300672930971097004_", "flatten_data": "0"}, "inputs": [[302, 0, 0], [303, 0, 0], [306, 0, 0], [307, 0, 0], [308, 0, 0]]}, {"op": "tvm_op", "name": "fused_nn_pad", "attrs": {"num_outputs": "1", "num_inputs": "1", "func_name": "fused_nn_pad", "flatten_data": "0"}, "inputs": [[309, 0, 0]]}, {"op": "null", "name": "p115", "inputs": []}, {"op": "tvm_op", "name": "fused_cast_multiply_92", "attrs": {"num_outputs": "1", "num_inputs": "1", "func_name": "fused_cast_multiply_9", "flatten_data": "0"}, "inputs": [[310, 0, 0]]}, {"op": "tvm_op", "name": "fused_nn_avg_pool2d_multiply_14", "attrs": {"num_outputs": "1", "num_inputs": "1", "func_name": "fused_nn_avg_pool2d_multiply_14", "flatten_data": "0"}, "inputs": [[312, 0, 0]]}, {"op": "null", "name": "p116", "inputs": []}, {"op": "tvm_op", "name": "fused_nn_contrib_depthwise_conv2d_NCHWc_subtract_add_cast_cast_multiply_add_righ_22436862876929056_", "attrs": {"num_outputs": "1", "num_inputs": "4", "func_name": "fused_nn_contrib_depthwise_conv2d_NCHWc_subtract_add_cast_cast_multiply_add_righ_22436862876929056_", "flatten_data": "0"}, "inputs": [[310, 0, 0], [311, 0, 0], [313, 0, 0], [314, 0, 0]]}, {"op": "null", "name": "p117", "inputs": []}, {"op": "tvm_op", "name": "fused_cast_layout_transform_142", "attrs": {"num_outputs": "1", "num_inputs": "1", "func_name": "fused_cast_layout_transform_14", "flatten_data": "0"}, "inputs": [[315, 0, 0]]}, {"op": "tvm_op", "name": "fused_sum_212", "attrs": {"num_outputs": "1", "num_inputs": "1", "func_name": "fused_sum_21", "flatten_data": "0"}, "inputs": [[317, 0, 0]]}, {"op": "tvm_op", "name": "fused_multiply_layout_transform_26", "attrs": {"num_outputs": "1", "num_inputs": "1", "func_name": "fused_multiply_layout_transform_26", "flatten_data": "0"}, "inputs": [[318, 0, 0]]}, {"op": "null", "name": "p118", "inputs": []}, {"op": "tvm_op", "name": "fused_nn_contrib_conv2d_NCHWc_subtract_add_cast_cast_multiply_add_right_shift_ca_5975801909190603682__1", "attrs": {"num_outputs": "1", "num_inputs": "4", "func_name": "fused_nn_contrib_conv2d_NCHWc_subtract_add_cast_cast_multiply_add_right_shift_ca_5975801909190603682__1", "flatten_data": "0"}, "inputs": [[315, 0, 0], [316, 0, 0], [319, 0, 0], [320, 0, 0]]}, {"op": "null", "name": "p119", "inputs": []}, {"op": "tvm_op", "name": "fused_cast_layout_transform_15", "attrs": {"num_outputs": "1", "num_inputs": "1", "func_name": "fused_cast_layout_transform_15", "flatten_data": "0"}, "inputs": [[321, 0, 0]]}, {"op": "tvm_op", "name": "fused_sum_22", "attrs": {"num_outputs": "1", "num_inputs": "1", "func_name": "fused_sum_22", "flatten_data": "0"}, "inputs": [[323, 0, 0]]}, {"op": "tvm_op", "name": "fused_multiply_layout_transform_27", "attrs": {"num_outputs": "1", "num_inputs": "1", "func_name": "fused_multiply_layout_transform_27", "flatten_data": "0"}, "inputs": [[324, 0, 0]]}, {"op": "null", "name": "p120", "inputs": []}, {"op": "null", "name": "p121", "inputs": []}, {"op": "tvm_op", "name": "fused_nn_contrib_conv2d_NCHWc_subtract_add_add_cast_cast_multiply_add_right_shif_6143255347406965393_", "attrs": {"num_outputs": "1", "num_inputs": "5", "func_name": "fused_nn_contrib_conv2d_NCHWc_subtract_add_add_cast_cast_multiply_add_right_shif_6143255347406965393_", "flatten_data": "0"}, "inputs": [[321, 0, 0], [322, 0, 0], [325, 0, 0], [326, 0, 0], [327, 0, 0]]}, {"op": "tvm_op", "name": "fused_nn_avg_pool2d_cast", "attrs": {"num_outputs": "1", "num_inputs": "1", "func_name": "fused_nn_avg_pool2d_cast", "flatten_data": "0"}, "inputs": [[328, 0, 0]]}, {"op": "tvm_op", "name": "fused_layout_transform_76", "attrs": {"num_outputs": "1", "num_inputs": "1", "func_name": "fused_layout_transform_76", "flatten_data": "0"}, "inputs": [[329, 0, 0]]}, {"op": "null", "name": "p122", "inputs": []}, {"op": "tvm_op", "name": "fused_cast_layout_transform_16", "attrs": {"num_outputs": "1", "num_inputs": "1", "func_name": "fused_cast_layout_transform_16", "flatten_data": "0"}, "inputs": [[329, 0, 0]]}, {"op": "tvm_op", "name": "fused_sum_23", "attrs": {"num_outputs": "1", "num_inputs": "1", "func_name": "fused_sum_23", "flatten_data": "0"}, "inputs": [[332, 0, 0]]}, {"op": "tvm_op", "name": "fused_multiply_layout_transform_28", "attrs": {"num_outputs": "1", "num_inputs": "1", "func_name": "fused_multiply_layout_transform_28", "flatten_data": "0"}, "inputs": [[333, 0, 0]]}, {"op": "null", "name": "p123", "inputs": []}, {"op": "tvm_op", "name": "fused_nn_contrib_conv2d_NCHWc_subtract_add_cast_cast_multiply_add_right_shift_ca_5975801909190603682_", "attrs": {"num_outputs": "1", "num_inputs": "4", "func_name": "fused_nn_contrib_conv2d_NCHWc_subtract_add_cast_cast_multiply_add_right_shift_ca_5975801909190603682_", "flatten_data": "0"}, "inputs": [[330, 0, 0], [331, 0, 0], [334, 0, 0], [335, 0, 0]]}, {"op": "tvm_op", "name": "fused_layout_transform_layout_transform_reshape_cast_subtract_cast_multiply", "attrs": {"num_outputs": "1", "num_inputs": "1", "func_name": "fused_layout_transform_layout_transform_reshape_cast_subtract_cast_multiply", "flatten_data": "0"}, "inputs": [[336, 0, 0]]}, {"op": "tvm_op", "name": "fused_nn_softmax", "attrs": {"num_outputs": "1", "num_inputs": "1", "func_name": "fused_nn_softmax", "flatten_data": "0"}, "inputs": [[337, 0, 0]]}, {"op": "tvm_op", "name": "fused_divide_add_round_cast_clip_cast", "attrs": {"num_outputs": "1", "num_inputs": "1", "func_name": "fused_divide_add_round_cast_clip_cast", "flatten_data": "0"}, "inputs": [[338, 0, 0]]}], "arg_nodes": [0, 3, 8, 9, 12, 15, 17, 21, 23, 27, 28, 31, 34, 36, 40, 42, 46, 47, 50, 53, 55, 59, 61, 65, 66, 69, 72, 74, 78, 80, 84, 85, 88, 91, 93, 97, 99, 103, 104, 107, 110, 112, 116, 118, 122, 123, 126, 129, 131, 135, 137, 141, 142, 145, 148, 150, 154, 156, 160, 161, 164, 165, 167, 171, 173, 177, 178, 181, 184, 186, 190, 192, 196, 197, 200, 203, 205, 209, 211, 215, 216, 219, 222, 224, 228, 230, 234, 235, 238, 241, 243, 247, 249, 253, 254, 257, 260, 262, 266, 268, 272, 273, 276, 279, 281, 285, 287, 288, 289, 292, 295, 297, 301, 303, 307, 308, 311, 314, 316, 320, 322, 326, 327, 331, 335], "heads": [[339, 0, 0]], "attrs": {"dltype": ["list_str", ["uint8", "uint8", "uint8", "int8", "int32", "int32", "int32", "int32", "int32", "int32", "uint8", "uint8", "int8", "int32", "int32", "int32", "uint8", "int8", "int32", "int32", "int32", "int32", "uint8", "int8", "int32", "int32", "int32", "int32", "int32", "uint8", "uint8", "int8", "int32", "int32", "int32", "uint8", "int8", "int32", "int32", "int32", "int32", "uint8", "int8", "int32", "int32", "int32", "int32", "int32", "uint8", "uint8", "int8", "int32", "int32", "int32", "uint8", "int8", "int32", "int32", "int32", "int32", "uint8", "int8", "int32", "int32", "int32", "int32", "int32", "uint8", "uint8", "int8", "int32", "int32", "int32", "uint8", "int8", "int32", "int32", "int32", "int32", "uint8", "int8", "int32", "int32", "int32", "int32", "int32", "uint8", "uint8", "int8", "int32", "int32", "int32", "uint8", "int8", "int32", "int32", "int32", "int32", "uint8", "int8", "int32", "int32", "int32", "int32", "int32", "uint8", "uint8", "int8", "int32", "int32", "int32", "uint8", "int8", "int32", "int32", "int32", "int32", "uint8", "int8", "int32", "int32", "int32", "int32", "int32", "uint8", "uint8", "int8", "int32", "int32", "int32", "uint8", "int8", "int32", "int32", "int32", "int32", "uint8", "int8", "int32", "int32", "int32", "int32", "int32", "uint8", "uint8", "int8", "int32", "int32", "int32", "uint8", "int8", "int32", "int32", "int32", "int32", "uint8", "int8", "int32", "int32", "int32", "int32", "int32", "uint8", "uint8", "int8", "int32", "uint8", "int8", "int32", "int32", "int32", "int32", "uint8", "int8", "int32", "int32", "int32", "int32", "int32", "uint8", "uint8", "int8", "int32", "int32", "int32", "uint8", "int8", "int32", "int32", "int32", "int32", "uint8", "int8", "int32", "int32", "int32", "int32", "int32", "uint8", "uint8", "int8", "int32", "int32", "int32", "uint8", "int8", "int32", "int32", "int32", "int32", "uint8", "int8", "int32", "int32", "int32", "int32", "int32", "uint8", "uint8", "int8", "int32", "int32", "int32", "uint8", "int8", "int32", "int32", "int32", "int32", "uint8", "int8", "int32", "int32", "int32", "int32", "int32", "uint8", "uint8", "int8", "int32", "int32", "int32", "uint8", "int8", "int32", "int32", "int32", "int32", "uint8", "int8", "int32", "int32", "int32", "int32", "int32", "uint8", "uint8", "int8", "int32", "int32", "int32", "uint8", "int8", "int32", "int32", "int32", "int32", "uint8", "int8", "int32", "int32", "int32", "int32", "int32", "uint8", "uint8", "int8", "int32", "int32", "int32", "uint8", "int8", "int32", "int32", "int32", "int32", "uint8", "int8", "int32", "int32", "uint8", "uint8", "int8", "int32", "int32", "int32", "uint8", "int8", "int32", "int32", "int32", "int32", "uint8", "int8", "int32", "int32", "int32", "int32", "int32", "uint8", "uint8", "int8", "int32", "int32", "int32", "uint8", "int8", "int32", "int32", "int32", "int32", "uint8", "int8", "int32", "int32", "int32", "int32", "int32", "int32", "uint8", "uint8", "int8", "int32", "int32", "int32", "int32", "uint8", "float32", "float32", "uint8"]], "shape": ["list_shape", [[1, 96, 96, 3], [1, 3, 97, 97], [1, 1, 97, 97, 3], [2, 1, 3, 3, 3, 8], [1, 1, 97, 97], [1, 1, 97, 97], [1, 1, 48, 48], [1, 1, 48, 48, 1], [1, 2, 1, 1, 8], [1, 2, 1, 1, 8], [1, 2, 48, 48, 8], [1, 2, 50, 50, 8], [2, 1, 3, 3, 1, 8], [1, 2, 50, 50, 8], [1, 2, 48, 48, 8], [1, 2, 1, 1, 8], [1, 2, 48, 48, 8], [1, 2, 1, 1, 8, 8], [1, 16, 48, 48], [1, 1, 48, 48], [1, 1, 48, 48, 1], [1, 1, 1, 1, 8], [1, 1, 48, 48, 8], [6, 1, 1, 1, 8, 8], [1, 8, 48, 48], [1, 1, 48, 48], [1, 1, 48, 48, 1], [1, 6, 1, 1, 8], [1, 6, 1, 1, 8], [1, 6, 48, 48, 8], [1, 6, 49, 49, 8], [6, 1, 3, 3, 1, 8], [1, 6, 49, 49, 8], [1, 6, 24, 24, 8], [1, 6, 1, 1, 8], [1, 6, 24, 24, 8], [1, 6, 1, 1, 8, 8], [1, 48, 24, 24], [1, 1, 24, 24], [1, 1, 24, 24, 1], [1, 1, 1, 1, 8], [1, 1, 24, 24, 8], [6, 1, 1, 1, 8, 8], [1, 8, 24, 24], [1, 1, 24, 24], [1, 1, 24, 24, 1], [1, 6, 1, 1, 8], [1, 6, 1, 1, 8], [1, 6, 24, 24, 8], [1, 6, 26, 26, 8], [6, 1, 3, 3, 1, 8], [1, 6, 26, 26, 8], [1, 6, 24, 24, 8], [1, 6, 1, 1, 8], [1, 6, 24, 24, 8], [1, 6, 1, 1, 8, 8], [1, 48, 24, 24], [1, 1, 24, 24], [1, 1, 24, 24, 1], [1, 1, 1, 1, 8], [1, 1, 24, 24, 8], [6, 1, 1, 1, 8, 8], [1, 8, 24, 24], [1, 1, 24, 24], [1, 1, 24, 24, 1], [1, 6, 1, 1, 8], [1, 6, 1, 1, 8], [1, 6, 24, 24, 8], [1, 6, 25, 25, 8], [6, 1, 3, 3, 1, 8], [1, 6, 25, 25, 8], [1, 6, 12, 12, 8], [1, 6, 1, 1, 8], [1, 6, 12, 12, 8], [2, 6, 1, 1, 8, 8], [1, 48, 12, 12], [1, 1, 12, 12], [1, 1, 12, 12, 1], [1, 2, 1, 1, 8], [1, 2, 12, 12, 8], [12, 2, 1, 1, 8, 8], [1, 16, 12, 12], [1, 1, 12, 12], [1, 1, 12, 12, 1], [1, 12, 1, 1, 8], [1, 12, 1, 1, 8], [1, 12, 12, 12, 8], [1, 12, 14, 14, 8], [12, 1, 3, 3, 1, 8], [1, 12, 14, 14, 8], [1, 12, 12, 12, 8], [1, 12, 1, 1, 8], [1, 12, 12, 12, 8], [2, 12, 1, 1, 8, 8], [1, 96, 12, 12], [1, 1, 12, 12], [1, 1, 12, 12, 1], [1, 2, 1, 1, 8], [1, 2, 12, 12, 8], [12, 2, 1, 1, 8, 8], [1, 16, 12, 12], [1, 1, 12, 12], [1, 1, 12, 12, 1], [1, 12, 1, 1, 8], [1, 12, 1, 1, 8], [1, 12, 12, 12, 8], [1, 12, 14, 14, 8], [12, 1, 3, 3, 1, 8], [1, 12, 14, 14, 8], [1, 12, 12, 12, 8], [1, 12, 1, 1, 8], [1, 12, 12, 12, 8], [2, 12, 1, 1, 8, 8], [1, 96, 12, 12], [1, 1, 12, 12], [1, 1, 12, 12, 1], [1, 2, 1, 1, 8], [1, 2, 12, 12, 8], [12, 2, 1, 1, 8, 8], [1, 16, 12, 12], [1, 1, 12, 12], [1, 1, 12, 12, 1], [1, 12, 1, 1, 8], [1, 12, 1, 1, 8], [1, 12, 12, 12, 8], [1, 12, 13, 13, 8], [12, 1, 3, 3, 1, 8], [1, 12, 13, 13, 8], [1, 12, 6, 6, 8], [1, 12, 1, 1, 8], [1, 12, 6, 6, 8], [3, 12, 1, 1, 8, 8], [1, 96, 6, 6], [1, 1, 6, 6], [1, 1, 6, 6, 1], [1, 3, 1, 1, 8], [1, 3, 6, 6, 8], [18, 3, 1, 1, 8, 8], [1, 24, 6, 6], [1, 1, 6, 6], [1, 1, 6, 6, 1], [1, 18, 1, 1, 8], [1, 18, 1, 1, 8], [1, 18, 6, 6, 8], [1, 18, 8, 8, 8], [18, 1, 3, 3, 1, 8], [1, 18, 8, 8, 8], [1, 18, 6, 6, 8], [1, 18, 1, 1, 8], [1, 18, 6, 6, 8], [3, 18, 1, 1, 8, 8], [1, 144, 6, 6], [1, 1, 6, 6], [1, 1, 6, 6, 1], [1, 3, 1, 1, 8], [1, 3, 6, 6, 8], [18, 3, 1, 1, 8, 8], [1, 24, 6, 6], [1, 1, 6, 6], [1, 1, 6, 6, 1], [1, 18, 1, 1, 8], [1, 18, 1, 1, 8], [1, 18, 6, 6, 8], [1, 18, 8, 8, 8], [18, 1, 3, 3, 1, 8], [1, 18, 1, 1, 8], [1, 18, 6, 6, 8], [3, 18, 1, 1, 8, 8], [1, 144, 6, 6], [1, 1, 6, 6], [1, 1, 6, 6, 1], [1, 3, 1, 1, 8], [1, 3, 6, 6, 8], [18, 3, 1, 1, 8, 8], [1, 24, 6, 6], [1, 1, 6, 6], [1, 1, 6, 6, 1], [1, 18, 1, 1, 8], [1, 18, 1, 1, 8], [1, 18, 6, 6, 8], [1, 18, 8, 8, 8], [18, 1, 3, 3, 1, 8], [1, 18, 8, 8, 8], [1, 18, 6, 6, 8], [1, 18, 1, 1, 8], [1, 18, 6, 6, 8], [3, 18, 1, 1, 8, 8], [1, 144, 6, 6], [1, 1, 6, 6], [1, 1, 6, 6, 1], [1, 3, 1, 1, 8], [1, 3, 6, 6, 8], [18, 3, 1, 1, 8, 8], [1, 24, 6, 6], [1, 1, 6, 6], [1, 1, 6, 6, 1], [1, 18, 1, 1, 8], [1, 18, 1, 1, 8], [1, 18, 6, 6, 8], [1, 18, 8, 8, 8], [18, 1, 3, 3, 1, 8], [1, 18, 8, 8, 8], [1, 18, 6, 6, 8], [1, 18, 1, 1, 8], [1, 18, 6, 6, 8], [4, 18, 1, 1, 8, 8], [1, 144, 6, 6], [1, 1, 6, 6], [1, 1, 6, 6, 1], [1, 4, 1, 1, 8], [1, 4, 6, 6, 8], [24, 4, 1, 1, 8, 8], [1, 32, 6, 6], [1, 1, 6, 6], [1, 1, 6, 6, 1], [1, 24, 1, 1, 8], [1, 24, 1, 1, 8], [1, 24, 6, 6, 8], [1, 24, 8, 8, 8], [24, 1, 3, 3, 1, 8], [1, 24, 8, 8, 8], [1, 24, 6, 6, 8], [1, 24, 1, 1, 8], [1, 24, 6, 6, 8], [4, 24, 1, 1, 8, 8], [1, 192, 6, 6], [1, 1, 6, 6], [1, 1, 6, 6, 1], [1, 4, 1, 1, 8], [1, 4, 6, 6, 8], [24, 4, 1, 1, 8, 8], [1, 32, 6, 6], [1, 1, 6, 6], [1, 1, 6, 6, 1], [1, 24, 1, 1, 8], [1, 24, 1, 1, 8], [1, 24, 6, 6, 8], [1, 24, 8, 8, 8], [24, 1, 3, 3, 1, 8], [1, 24, 8, 8, 8], [1, 24, 6, 6, 8], [1, 24, 1, 1, 8], [1, 24, 6, 6, 8], [4, 24, 1, 1, 8, 8], [1, 192, 6, 6], [1, 1, 6, 6], [1, 1, 6, 6, 1], [1, 4, 1, 1, 8], [1, 4, 6, 6, 8], [24, 4, 1, 1, 8, 8], [1, 32, 6, 6], [1, 1, 6, 6], [1, 1, 6, 6, 1], [1, 24, 1, 1, 8], [1, 24, 1, 1, 8], [1, 24, 6, 6, 8], [1, 24, 7, 7, 8], [24, 1, 3, 3, 1, 8], [1, 24, 7, 7, 8], [1, 24, 3, 3, 8], [1, 24, 1, 1, 8], [1, 24, 3, 3, 8], [7, 24, 1, 1, 8, 8], [1, 192, 3, 3], [1, 1, 3, 3], [1, 1, 3, 3, 1], [1, 7, 1, 1, 8], [1, 7, 3, 3, 8], [42, 7, 1, 1, 8, 8], [1, 56, 3, 3], [1, 1, 3, 3], [1, 1, 3, 3, 1], [1, 42, 1, 1, 8], [1, 42, 1, 1, 8], [1, 42, 3, 3, 8], [1, 42, 5, 5, 8], [42, 1, 3, 3, 1, 8], [1, 42, 5, 5, 8], [1, 42, 3, 3, 8], [1, 42, 1, 1, 8], [1, 42, 3, 3, 8], [7, 42, 1, 1, 8, 8], [1, 336, 3, 3], [1, 1, 3, 3], [1, 1, 3, 3, 1], [1, 7, 1, 1, 8], [1, 7, 3, 3, 8], [42, 7, 1, 1, 8, 8], [1, 42, 1, 1, 8], [1, 42, 1, 1, 8], [1, 42, 3, 3, 8], [1, 42, 5, 5, 8], [42, 1, 3, 3, 1, 8], [1, 42, 5, 5, 8], [1, 42, 3, 3, 8], [1, 42, 1, 1, 8], [1, 42, 3, 3, 8], [7, 42, 1, 1, 8, 8], [1, 336, 3, 3], [1, 1, 3, 3], [1, 1, 3, 3, 1], [1, 7, 1, 1, 8], [1, 7, 3, 3, 8], [42, 7, 1, 1, 8, 8], [1, 56, 3, 3], [1, 1, 3, 3], [1, 1, 3, 3, 1], [1, 42, 1, 1, 8], [1, 42, 1, 1, 8], [1, 42, 3, 3, 8], [1, 42, 5, 5, 8], [42, 1, 3, 3, 1, 8], [1, 42, 5, 5, 8], [1, 42, 3, 3, 8], [1, 42, 1, 1, 8], [1, 42, 3, 3, 8], [14, 42, 1, 1, 8, 8], [1, 336, 3, 3], [1, 1, 3, 3], [1, 1, 3, 3, 1], [1, 14, 1, 1, 8], [1, 14, 3, 3, 8], [160, 14, 1, 1, 8, 8], [1, 112, 3, 3], [1, 1, 3, 3], [1, 1, 3, 3, 1], [1, 160, 1, 1, 8], [1, 160, 1, 1, 8], [1, 160, 3, 3, 8], [1, 160, 1, 1, 8], [1, 640, 1, 1, 2], [1, 640, 1, 1, 2, 2], [1, 1280, 1, 1], [1, 1, 1, 1], [1, 1, 1, 1, 1], [1, 1, 1, 1, 2], [1, 1, 1, 1, 2], [1, 2], [1, 2], [1, 2]]], "storage_id": ["list_int", [0, 1, 2, 3, 4, 1, 4, 1, 5, 6, 4, 1, 7, 4, 2, 8, 4, 9, 2, 1, 2, 10, 1, 11, 2, 12, 2, 13, 14, 4, 2, 15, 4, 1, 16, 12, 17, 1, 18, 19, 20, 18, 21, 12, 19, 12, 22, 23, 1, 2, 24, 4, 1, 25, 12, 26, 1, 19, 27, 28, 19, 29, 12, 27, 18, 30, 31, 12, 1, 32, 2, 12, 33, 18, 34, 12, 27, 19, 35, 27, 36, 12, 19, 18, 37, 38, 12, 1, 39, 2, 4, 40, 12, 41, 1, 19, 18, 42, 19, 43, 12, 27, 18, 44, 45, 12, 1, 46, 2, 4, 47, 12, 48, 1, 27, 18, 49, 27, 50, 12, 19, 18, 51, 52, 12, 1, 53, 2, 12, 54, 19, 55, 12, 27, 56, 57, 27, 58, 19, 56, 59, 60, 61, 18, 12, 62, 1, 2, 63, 18, 64, 12, 56, 59, 65, 19, 66, 18, 56, 59, 67, 68, 18, 12, 69, 70, 18, 71, 12, 56, 59, 72, 27, 73, 19, 56, 59, 74, 75, 18, 12, 76, 1, 2, 77, 18, 78, 12, 56, 59, 79, 19, 80, 18, 56, 59, 81, 82, 18, 12, 83, 1, 2, 84, 18, 85, 12, 56, 59, 86, 27, 87, 19, 56, 59, 88, 89, 18, 12, 90, 1, 2, 91, 18, 92, 12, 56, 59, 93, 19, 94, 18, 56, 59, 95, 96, 18, 12, 97, 1, 2, 98, 18, 99, 12, 56, 59, 100, 27, 101, 19, 56, 59, 102, 103, 18, 12, 104, 1, 18, 105, 27, 106, 18, 56, 59, 107, 19, 108, 27, 56, 59, 109, 110, 18, 12, 111, 1, 2, 112, 18, 113, 12, 56, 59, 114, 27, 115, 116, 117, 19, 12, 118, 1, 2, 119, 19, 120, 12, 56, 59, 121, 18, 122, 27, 56, 59, 123, 124, 19, 12, 125, 1, 2, 126, 19, 127, 12, 56, 59, 128, 27, 129, 19, 56, 59, 130, 131, 1, 27, 19, 132, 18, 133, 134, 135, 133, 134, 133, 134]]}, "node_row_ptr": [0, 1, 2, 3, 4, 5, 6, 7, 8, 9, 10, 11, 12, 13, 14, 15, 16, 17, 18, 19, 20, 21, 22, 23, 24, 25, 26, 27, 28, 29, 30, 31, 32, 33, 34, 35, 36, 37, 38, 39, 40, 41, 42, 43, 44, 45, 46, 47, 48, 49, 50, 51, 52, 53, 54, 55, 56, 57, 58, 59, 60, 61, 62, 63, 64, 65, 66, 67, 68, 69, 70, 71, 72, 73, 74, 75, 76, 77, 78, 79, 80, 81, 82, 83, 84, 85, 86, 87, 88, 89, 90, 91, 92, 93, 94, 95, 96, 97, 98, 99, 100, 101, 102, 103, 104, 105, 106, 107, 108, 109, 110, 111, 112, 113, 114, 115, 116, 117, 118, 119, 120, 121, 122, 123, 124, 125, 126, 127, 128, 129, 130, 131, 132, 133, 134, 135, 136, 137, 138, 139, 140, 141, 142, 143, 144, 145, 146, 147, 148, 149, 150, 151, 152, 153, 154, 155, 156, 157, 158, 159, 160, 161, 162, 163, 164, 165, 166, 167, 168, 169, 170, 171, 172, 173, 174, 175, 176, 177, 178, 179, 180, 181, 182, 183, 184, 185, 186, 187, 188, 189, 190, 191, 192, 193, 194, 195, 196, 197, 198, 199, 200, 201, 202, 203, 204, 205, 206, 207, 208, 209, 210, 211, 212, 213, 214, 215, 216, 217, 218, 219, 220, 221, 222, 223, 224, 225, 226, 227, 228, 229, 230, 231, 232, 233, 234, 235, 236, 237, 238, 239, 240, 241, 242, 243, 244, 245, 246, 247, 248, 249, 250, 251, 252, 253, 254, 255, 256, 257, 258, 259, 260, 261, 262, 263, 264, 265, 266, 267, 268, 269, 270, 271, 272, 273, 274, 275, 276, 277, 278, 279, 280, 281, 282, 283, 284, 285, 286, 287, 288, 289, 290, 291, 292, 293, 294, 295, 296, 297, 298, 299, 300, 301, 302, 303, 304, 305, 306, 307, 308, 309, 310, 311, 312, 313, 314, 315, 316, 317, 318, 319, 320, 321, 322, 323, 324, 325, 326, 327, 328, 329, 330, 331, 332, 333, 334, 335, 336, 337, 338, 339, 340], "leip": {"precision": "float32"}}